…
      "Model: \"model\"\n",
      "__________________________________________________________________________________________________\n",
      "Layer (type)                    Output Shape         Param #     Connected to                     \n",
      "==================================================================================================\n",
      "input_1 (InputLayer)            [(None, 104, 1)]     0                                            \n",
      "__________________________________________________________________________________________________\n",
      "Conv__B1_L1 (Conv1D)            (None, 104, 16)      112         input_1[0][0]                    \n",
      "__________________________________________________________________________________________________\n",
      "Conv__B1_L2 (Conv1D)            (None, 104, 64)      6208        Conv__B1_L1[0][0]                \n",
      "__________________________________________________________________________________________________\n",
      "Conv__B1_L3 (Conv1D)            (None, 104, 144)     55440       Conv__B1_L2[0][0]                \n",
      "__________________________________________________________________________________________________\n",
      "MaxPool1D__B1_L3 (MaxPooling1D) (None, 52, 144)      0           Conv__B1_L3[0][0]                \n",
      "__________________________________________________________________________________________________\n",
      "flatten (Flatten)               (None, 7488)         0           MaxPool1D__B1_L3[0][0]           \n",
      "__________________________________________________________________________________________________\n",
      "FC1__B1_L1 (Dense)              (None, 512)          3834368     flatten[0][0]                    \n",
      "__________________________________________________________________________________________________\n",
      "FC1__B1_L2 (Dense)              (None, 2048)         1050624     FC1__B1_L1[0][0]                 \n",
      "__________________________________________________________________________________________________\n",
      "FC1__B1_L3 (Dense)              (None, 4608)         9441792     FC1__B1_L2[0][0]                 \n",
      "__________________________________________________________________________________________________\n",
      "FC1__B1_L4 (Dense)              (None, 8192)         37756928    FC1__B1_L3[0][0]                 \n",
      "__________________________________________________________________________________________________\n",
      "FC1__Dropout__B1_L4 (Dropout)   (None, 8192)         0           FC1__B1_L4[0][0]                 \n",
      "__________________________________________________________________________________________________\n",
      "input_2 (InputLayer)            [(None, 2)]          0                                            \n",
      "__________________________________________________________________________________________________\n",
      "Concatenated_Layer (Concatenate (None, 8194)         0           FC1__Dropout__B1_L4[0][0]        \n",
      "                                                                 input_2[0][0]                    \n",
      "__________________________________________________________________________________________________\n",
      "FC2__B1_L1 (Dense)              (None, 256)          2097920     Concatenated_Layer[0][0]         \n",
      "__________________________________________________________________________________________________\n",
      "FC2__B1_L2 (Dense)              (None, 1024)         263168      FC2__B1_L1[0][0]                 \n",
      "__________________________________________________________________________________________________\n",
      "FC2__Dropout__B1_L2 (Dropout)   (None, 1024)         0           FC2__B1_L2[0][0]                 \n",
      "__________________________________________________________________________________________________\n",
      "FC2__B2_L1 (Dense)              (None, 1024)         1049600     FC2__Dropout__B1_L2[0][0]        \n",
      "__________________________________________________________________________________________________\n",
      "FC2__B2_L2 (Dense)              (None, 2304)         2361600     FC2__B2_L1[0][0]                 \n",
      "__________________________________________________________________________________________________\n",
      "FC2__Dropout__B2_L2 (Dropout)   (None, 2304)         0           FC2__B2_L2[0][0]                 \n",
      "__________________________________________________________________________________________________\n",
      "FC2__B3_L1 (Dense)              (None, 2304)         5310720     FC2__Dropout__B2_L2[0][0]        \n",
      "__________________________________________________________________________________________________\n",
      "FC2__B3_L2 (Dense)              (None, 4096)         9441280     FC2__B3_L1[0][0]                 \n",
      "__________________________________________________________________________________________________\n",
      "FC2__Dropout__B3_L2 (Dropout)   (None, 4096)         0           FC2__B3_L2[0][0]                 \n",
      "__________________________________________________________________________________________________\n",
      "FC2__B4_L1 (Dense)              (None, 4096)         16781312    FC2__Dropout__B3_L2[0][0]        \n",
      "__________________________________________________________________________________________________\n",
      "FC2__B4_L2 (Dense)              (None, 6400)         26220800    FC2__B4_L1[0][0]                 \n",
      "__________________________________________________________________________________________________\n",
      "FC2__Dropout__B4_L2 (Dropout)   (None, 6400)         0           FC2__B4_L2[0][0]                 \n",
      "__________________________________________________________________________________________________\n",
      "gravity (Dense)                 (None, 1)            6401        FC2__Dropout__B4_L2[0][0]        \n",
      "__________________________________________________________________________________________________\n",
      "c_o_ratio (Dense)               (None, 1)            6401        FC2__Dropout__B4_L2[0][0]        \n",
      "__________________________________________________________________________________________________\n",
      "metallicity (Dense)             (None, 1)            6401        FC2__Dropout__B4_L2[0][0]        \n",
      "__________________________________________________________________________________________________\n",
      "temperature (Dense)             (None, 1)            6401        FC2__Dropout__B4_L2[0][0]        \n",
      "==================================================================================================\n",
      "Total params: 115,697,476\n",
      "Trainable params: 115,697,476\n",
      "Non-trainable params: 0\n",
      "__________________________________________________________________________________________________\n",
      "None\n"
     ]
…
